models/classifier/age_model.pt (torch, 247361 bytes, 2 tensors)

fc.weight f4 [120, 512]
0	0x3f9892ba	1.1919777
1	0xbe920b74	-0.28524363
2	0xbf9fe381	-1.2491304
3	0xbf9f60aa	-1.2451375
4	0x3e2839dd	0.16428323
5	0xbfa0d8d0	-1.2566166
6	0xbd469c52	-0.048488922
7	0x3f71d6ed	0.94468576
8	0xbf34b409	-0.7058721
9	0x3fa26683	1.2687534
10	0xbd92589f	-0.071458094
11	0x3f80c788	1.0060892
12	0xbd77cabc	-0.060496077
13	0x3fa651fc	1.299377
14	0xbf1c253d	-0.6099432
15	0x3f9b005e	1.2109487
16	0xbf9a57f0	-1.2058086
17	0x3f948cb5	1.160544
18	0x3f46ffa2	0.77733815
19	0xbfa072c3	-1.2535022
20	0xbe894c87	-0.26816198
21	0x3f955ced	1.1668984
22	0x3f9a8374	1.2071366
23	0x3f98b525	1.1930281
24	0x3f9dd96a	1.2331975
25	0xbdd6c6c2	-0.10487129
26	0xbf6abccf	-0.9169435
27	0x3f9eea74	1.24153
28	0x3f9fe5de	1.2492025
29	0x3fac9ed8	1.3485975
30	0x3dc6dde3	0.0971029
31	0x3f939eed	1.1532875
32	0xbef2e2f2	-0.4743877
33	0x3f99e87a	1.2024071
34	0xbf8bf2ff	-1.0933532
35	0xbf94ccff	-1.162506
36	0x3f0ae510	0.5425577
37	0xbf9b0bd0	-1.211298
38	0xbe318583	-0.17336087
39	0xbf89d89f	-1.0769233
40	0xbd9da811	-0.07698072
41	0xbf999523	-1.1998638
42	0xbe5358c4	-0.2063933
43	0x3f9cd905	1.2253729
44	0x3f852721	1.0402566
45	0x3fa056ae	1.2526453
46	0x3f85a293	1.0440239
47	0x3eb2513c	0.34827602
48	0xbf9630af	-1.1733607
49	0xbd9c515d	-0.07632706
50	0xbf93cc17	-1.1546658
51	0x3f9956da	1.197963
52	0x3e15ca82	0.14628032
53	0x3f9ef4ea	1.2418492
54	0xbf5a357f	-0.8523788
55	0x3f9b29d6	1.2122142
56	0xbf92c46a	-1.1466191
57	0x3f91c9b2	1.1389678
58	0xbe25a395	-0.16175683
59	0x3f97297a	1.1809533
60	0xbfa00ff7	-1.2504872
61	0x3fa56481	1.2921296
62	0xbeff7d3d	-0.49900237
63	0x3fa3e030	1.2802792
64	0x3f83e064	1.0302854
65	0x3fa1e8e4	1.2649198
66	0xbf43e599	-0.76522213
67	0x3f87b5cf	1.0602359
68	0x3fab4f16	1.338351
69	0x3fc8eb61	1.5696832
70	0xbdeab6d2	-0.114606515
71	0x3f9919db	1.1961015
72	0xbdb5c80a	-0.08876045
73	0xbf88ab91	-1.0677358
74	0xbf963cb4	-1.1737275
75	0x3fa90df8	1.3207388
76	0xbf9a1cc3	-1.2040027
77	0xbe1333c9	-0.14375223
78	0x3f9b65c6	1.2140434
79	0x3d4d5aca	0.05013541
80	0xbf9fb735	-1.2477785
81	0x3f9ffe01	1.2499391
82	0xbf822b0d	-1.0169388
83	0xbfa0331e	-1.25156
84	0xbf99b668	-1.2008791
85	0x3f8babf8	1.0911856
86	0xbeb4f8c5	-0.35346046
87	0x3fa0178a	1.2507184
88	0xbe43f72a	-0.19137254
89	0x3fb40b04	1.4065862
90	0xbf841435	-1.0318667
91	0xbf97ad8d	-1.1849838
92	0x3f9c4b02	1.221039
93	0x3fb29966	1.3953063
94	0x3f86a914	1.0520349
95	0xbf98de25	-1.1942793
96	0xbf76ae0a	-0.9635931
97	0x3fa03648	1.2516565
98	0xbf8fa26c	-1.1221442
99	0xbfa104a1	-1.2579538
100	0xbe64512a	-0.22296587
101	0xbf7c2817	-0.9849867
102	0x3fa0d76d	1.2565743
103	0x3f9b5606	1.2135627
104	0xbfa87f5d	-1.3163868
105	0xbf90aa5d	-1.1301991
106	0x3f95cb11	1.1702596
107	0x3e097436	0.13423237
108	0x3f97f68b	1.1872114
109	0x3f58ce4f	0.846898
110	0xbf370c78	-0.715034
111	0xbdcd7ae3	-0.100332044
112	0xbf85fd97	-1.0468014
113	0xbe33f5d2	-0.17574242
114	0xbfa107b4	-1.2580476
115	0x3e64a7ca	0.22329631
116	0x3f9ba533	1.215979
117	0x3fa031ab	1.2515157
118	0xbe3af2bf	-0.18256663
119	0x3f477f67	0.77928776
120	0x3f149383	0.58037585
121	0xbf928f9d	-1.1450077
122	0x3f1431a6	0.5788826
123	0x3ded81ec	0.11597046
124	0xbf982761	-1.1887017
125	0x3fb21d3d	1.3915173
126	0x3f9d419f	1.2285651
127	0xbfa0bd80	-1.2557831
128	0xbeaf9bd5	-0.34298578
129	0xbf94df44	-1.1630635
130	0xbf965d1d	-1.1747166
131	0x3f9a3b54	1.2049356
132	0x3fb032a1	1.3765451
133	0x3f988fad	1.1918846
134	0xbf939956	-1.153117
135	0x3f9fe0a4	1.249043
136	0xbfb3be49	-1.4042445
137	0x3fa71dac	1.305593
138	0xbf914ecd	-1.1352173
139	0x3f99d8e4	1.2019315
140	0x3f8cabda	1.0989945
141	0xbf8497bb	-1.0358804
142	0x3f3293d3	0.6975681
143	0x3f9d4d02	1.2289126
144	0xbf812532	-1.0089476
145	0xbf9546a7	-1.1662186
146	0x3f8c4316	1.0957973
147	0xbe20c070	-0.15698409
148	0xbf496f8b	-0.78685826
149	0x3fa25dc0	1.268486
150	0xbf9a311f	-1.204624
151	0xbe8df541	-0.27726176
152	0x3f37b377	0.71758217
153	0x3dfb806f	0.12280356
154	0x3f9eb0d0	1.2397709
155	0xbda8d99e	-0.08244632
156	0x3e8f8563	0.28031453
157	0xbe1e4fd3	-0.15460138
158	0xbe76e1eb	-0.24109618
159	0x3f98f742	1.1950457
160	0x3f9bd278	1.2173605
161	0x3f9f0627	1.2423753
162	0xbecc5614	-0.39909422
163	0xbf8beb13	-1.0931114
164	0xbf9e0bc4	-1.234734
165	0x3f862711	1.0480672
166	0x3f8fc5d7	1.1232251
167	0xbfa393be	-1.2779462
168	0xbf9ce0dd	-1.2256123
169	0xbf913a88	-1.1345987
170	0x3e5cdf17	0.21569477
171	0x3fad389c	1.3532901
172	0x3e61ed3c	0.22063154
173	0x3e31b1b8	0.1735295
174	0xbf96bbfa	-1.1776116
175	0xbfac94d5	-1.348292
176	0xbf9d8927	-1.230748
177	0x3f6bf462	0.92169774
178	0x3f8ec0e5	1.1152617
179	0x3fa6acdc	1.3021502
180	0x3f989ac0	1.1922226
181	0xbf99abe4	-1.2005582
182	0x3f9571e9	1.1675388
183	0x3f471cb0	0.7777815
184	0x3d1a47c3	0.037666094
185	0xbf9bc7e3	-1.2170376
186	0x3f8b8c77	1.0902241
187	0xbe64fe59	-0.22362651
188	0x3e6ffc51	0.23436095
189	0xbf89e9d0	-1.0774479
190	0xbea67007	-0.32507345
191	0x3ec767e1	0.3894644
192	0xbf883ab8	-1.064292
193	0x3fa33646	1.2750938
194	0x3f1b3065	0.6062072
195	0x3f8441b4	1.0332551
196	0x3f888aae	1.0667322
197	0xbf96c3f5	-1.1778551
198	0x3f94cd82	1.1625216
199	0x3f8e5ecf	1.1122683
200	0x3fb69ffb	1.4267572
201	0xbf9392e9	-1.1529208
202	0xbd4640b4	-0.04840155
203	0xbf976dd7	-1.1830395
204	0x3f9a25e6	1.2042816
205	0x3f93542d	1.1510063
206	0xbf8e505e	-1.1118276
207	0x3f84c096	1.0371273
208	0xbd0a27a7	-0.03372922
209	0x3ed86ed2	0.4227205
210	0x3f8bb186	1.0913551
211	0xbf86176e	-1.04759
212	0x3c0b1326	0.008488452
213	0xbe91d7a5	-0.28484836
214	0xbe072678	-0.13198268
215	0xbf80aa3a	-1.0051949
216	0xbdc0b756	-0.094099686
217	0xbf77081d	-0.96496755
218	0xbfa8dde2	-1.3192713
219	0x3f962d6e	1.1732614
220	0xbf616ba2	-0.8805486
221	0xbf9d5694	-1.2292047
222	0xbe379759	-0.17928828
223	0xbf910358	-1.1329145
224	0xbf925b28	-1.1434069
225	0xbf6c301f	-0.92260927
226	0xbf979cd4	-1.1844735
227	0xbf79dd43	-0.97603244
228	0x3ee70550	0.4512124
229	0x3f968f68	1.1762514
230	0x3e2f3299	0.17109145
231	0xbfa0997f	-1.2546843
232	0xbf95df68	-1.1708803
233	0x3f715dd6	0.9428381
234	0x3f91cbe1	1.1390344
235	0x3e488419	0.19581641
236	0x3f93466c	1.1505866
237	0xbfaaf990	-1.335741
238	0xbf9d61cd	-1.2295471
239	0xbf99f335	-1.2027346
240	0xbd824c7a	-0.06362243
241	0xbf3fd9f6	-0.74941957
242	0xbcb1c653	-0.021701014
243	0x3dd3f96e	0.10350309
244	0x3fb9dbf9	1.4520255
245	0xbea431d7	-0.32069275
246	0xbf92e375	-1.1475664
247	0x3e234574	0.15944463
248	0xbfa51be9	-1.2899143
249	0x3f9d5f80	1.2294769
250	0xbcab42f0	-0.020905942
251	0x3f9916df	1.1960105
252	0xbf91c9f5	-1.1389757
253	0x3dc12715	0.094312824
254	0x3fbaf365	1.4605528
255	0xbf95762e	-1.167669

fc.bias f4 [120]
0	0xbfa2aab8	-1.2708349
1	0xbe20e7de	-0.1571345
2	0xbdebab40	-0.11507273
3	0x3c35c81f	0.011095076
4	0xbd73354b	-0.059376996
5	0xbe01aa13	-0.12662534
6	0xbe2392ae	-0.15973923
7	0xbda357cc	-0.0797573
8	0xbe5de739	-0.21670236
9	0xbe524689	-0.2053472
10	0xbd999726	-0.074995324
11	0xbe83691d	-0.25666133
12	0xbde2c2c2	-0.11072303
13	0xbe9a9967	-0.30195162
14	0xbd8844aa	-0.06653722
15	0xbd99bbc7	-0.07506519
16	0xbd518240	-0.051149607
17	0xbe16ff8a	-0.14745918
18	0xbd5967e4	-0.053077593
19	0xbe83da41	-0.25752452
20	0xbd537e9f	-0.051634427
21	0x3d840821	0.06446863
22	0x3e27d989	0.16391577
23	0x3e14e8b5	0.14541896
24	0x3e7e3b7c	0.24827379
25	0x3e9372f6	0.28798646
26	0x3f23a417	0.63922256
27	0x3eb245a2	0.3481875
28	0x3e7fd424	0.24983269
29	0x3d9e9211	0.07742704
30	0x3e8e687a	0.27814084
31	0x3e2602b9	0.16211976
32	0x3e6e254d	0.23256417
33	0xbdf9a8de	-0.12190412
34	0x3e594ef7	0.21221529
35	0x3ec828da	0.39093667
36	0x3e51413d	0.20435043
37	0xbdd1957e	-0.102335915
38	0xbcc8474a	-0.024448056
39	0xbb7a84c9	-0.0038226119
40	0x3e5cb34c	0.21552771
41	0xbe6c810f	-0.23096107
42	0x3d8280d5	0.06372229
43	0xbde76dce	-0.113002405
44	0xbe4abc49	-0.19798388
45	0x3e103f55	0.14086659
46	0xbe39bfd1	-0.18139578
47	0xbdaf9afe	-0.08574484
48	0xbdcc819f	-0.09985661
49	0xbe2b5cb8	-0.16734588
50	0xbdbca8a0	-0.0921185
51	0xbe2fd3c2	-0.17170623
52	0xbc193939	-0.009352022
53	0xbd873ac6	-0.06603007
54	0xb98cc825	-0.00026852
55	0xbda702a3	-0.081548
56	0xbce173c2	-0.027521018
57	0xbdde8c76	-0.108666345
58	0x3cc4e352	0.024034176
59	0xbe2a0b83	-0.16605954
60	0x3cd777c5	0.026302228
61	0xbdc0089a	-0.093766406
62	0xbe59d854	-0.21273929
63	0xbe868e8e	-0.26280636
64	0xbe7bd832	-0.2459419
65	0x3cef88cd	0.029240036
66	0xbe9f38ac	-0.31097925
67	0xbe7dfe47	-0.2480403
68	0xbea73909	-0.32660702
69	0xbea989ac	-0.33112848
70	0xbe2fa848	-0.17154038
71	0xbea9f011	-0.3319097
72	0xbea400d4	-0.32031882
73	0xbea9315b	-0.33045468
74	0xbee1e12d	-0.44117108
75	0xbea8224e	-0.32838672
76	0xbebc4664	-0.36772454
77	0xbeea9dd9	-0.45823553
78	0xbe920810	-0.28521776
79	0xbee29524	-0.4425441
80	0xbe51c0bd	-0.2048368
81	0xbeee6824	-0.46563828
82	0xbeebb30b	-0.46035036
83	0xbf074c81	-0.5285111
84	0xbf1113e4	-0.56670976
85	0xbe80ce6d	-0.2515749
86	0xbf22e4a6	-0.6363014
87	0xbf1478cd	-0.5799683
88	0xbec99394	-0.39370406
89	0xbefb1130	-0.4903655
90	0xbe5bede4	-0.21477467
91	0xbf2dce22	-0.6789266
92	0xbf05a3a7	-0.5220284
93	0xbf282210	-0.65676975
94	0xbf6ff8b3	-0.9373886
95	0xbf13ac97	-0.57685226
96	0xbea7fff0	-0.32812452
97	0xbfa18b1d	-1.2620579
98	0xbf873e8f	-1.0565966
99	0xbeb13f9d	-0.34618846
100	0xbeaf846c	-0.34280717
101	0xbefd5688	-0.4948008
102	0xbfa9a6f7	-1.3254079
103	0xbeba7b0f	-0.3642201
104	0xbfa8d0df	-1.3188742
105	0xbed57dd8	-0.41697574
106	0xbfa2654e	-1.2687166
107	0xbfa6f623	-1.3043865
108	0xbfa732b8	-1.3062353
109	0xbfa3858b	-1.2775129
110	0xbeb45a14	-0.35224974
111	0xbed491c6	-0.41517466
112	0xbfa11ae5	-1.2586333
113	0xbfa17102	-1.2612612
114	0xbfa101fd	-1.2578732
115	0xbeb0d07a	-0.34534055
116	0xbedeff95	-0.4355437
117	0xbfa25855	-1.2683207
118	0xbfa60093	-1.2968925
119	0xbfa50c18	-1.2894316
