models/classifier/gender_model.pt (torch, 5249 bytes, 2 tensors)

fc.weight f4 [2, 512]
000000 67 5d d2 bf 3e 93 76 be ee 59 ea be dd c0 68 3f
       -1.6434754 -0.24079606 -0.45771736 0.90919286
000010 d8 a9 3f 3e ed 7c 1b be a4 b6 41 3e 2a 07 b9 3e
       0.18717134 -0.15184374 0.18917328 0.36138278
000020 b9 e9 84 3e 2f e5 93 be 5e a7 e4 be 10 6f 9a be
       0.25959566 -0.2888579 -0.4465894 -0.3016286
000030 cc f9 44 3f 46 bb 5f 3f 1d 58 e7 3f 20 ab 5a be
       0.7694366 0.8739513 1.8073765 -0.21354342
000040 61 8a 85 3f 3e e9 a4 3e 60 2c 38 3f 9b b2 f3 bd
       1.0432855 0.322092 0.7194271 -0.11899301
000050 5b 8e a7 3e 18 a5 bd be 45 69 18 3f a1 3f 64 bf
       0.32725796 -0.3704002 0.5953563 -0.8915959
000060 bf 6a 30 3f b2 1c 00 3d 0e 43 94 3c 1f 84 3a be
       0.6891288 0.031277366 0.01809838 -0.18214463
000070 5f a3 4c bf 09 51 b7 be fd 30 d8 3e 30 ba ce be
       -0.79936785 -0.35804012 0.42224875 -0.40376425
000080 43 00 90 3f c0 3c ac 3e 52 1c 00 bd 60 35 c5 3c
       1.125008 0.336401 -0.03127701 0.024073303
000090 70 82 2b bf b7 d5 04 3f 9c 59 08 bf 3c 7e 7b 3f
       -0.66995907 0.518886 -0.53261733 0.98239493
0000a0 71 d2 70 bf b9 3b 57 bd 6e 18 3f 3f cf 99 92 3f
       -0.9407111 -0.05254719 0.7464665 1.1453189
0000b0 3a 05 c5 be af 48 c9 3e 65 7e 5c 3f f6 17 79 bf
       -0.3848055 0.39313266 0.8613036 -0.97302186
0000c0 56 85 78 3f 9c 21 c4 3d d5 4c e1 bd d0 9b 94 bd
       0.97078454 0.09576723 -0.11000983 -0.072562814
0000d0 88 ca b5 be b4 b0 d1 be 0e 99 96 be f7 53 bb 3e
       -0.35506082 -0.40955126 -0.29413646 0.36587498
0000e0 4f 1c 49 3f c2 b2 22 3f 6f dc f5 3e 99 73 40 3a
       0.7855882 0.6355401 0.4801974 0.0007341444
0000f0 02 31 db 3d c0 0d 42 be 4f 20 0a 3f ca aa 7f be
       0.10702707 -0.18950558 0.5395555 -0.24967495
000100 9d ee fb 3e b9 3a 45 bf 1a e6 65 be 9f fb 16 bf
       0.49205485 -0.7704273 -0.22451058 -0.58977693
000110 86 19 69 3a d3 82 98 3e 6f 11 c6 3e cd 93 4b be
       0.0008892048 0.2978731 0.38685176 -0.198806
000120 7b f8 08 3f 3d 97 7a 3f 11 74 38 3e ee 39 2e be
       0.5350415 0.9788702 0.18013026 -0.17014286
000130 7d d3 34 be 78 9a 98 3f 11 9c 54 3e 72 9c 65 3f
       -0.17658801 1.192214 0.2076266 0.8969184
000140 df c2 50 3f 83 ee 7a be 49 dc e7 be c4 20 2d 3f
       0.8154735 -0.24505048 -0.45285252 0.6762812
000150 83 83 11 3e 25 7e 6e 3d ee a2 eb 3e 96 94 9f 3e
       0.14210324 0.05822577 0.46022743 0.3116805
000160 5a 53 2a 3f 3c d1 88 3e b3 ea 58 3e aa 0e 89 3f
       0.66533434 0.26722133 0.2118328 1.07076
000170 b1 13 29 be fb 36 50 3e 02 d5 5c bf 5a 72 9c 3b
       -0.16511418 0.20333473 -0.86262524 0.004774374
000180 6d 86 66 be ac c8 14 3c 81 94 40 3f e0 e6 54 3e
       -0.22512217 0.009081047 0.752266 0.20791197
000190 3a db ae be b6 7a 34 be b3 40 56 be 8a 8d f7 be
       -0.34151632 -0.17624936 -0.20923118 -0.48350173
0001a0 7b f4 9c 3f 61 52 2b bf ab 77 01 bf b0 5b 6d be
       1.226211 -0.66922575 -0.50573224 -0.23179507
0001b0 b8 d6 c6 3e 3b 79 92 bf 85 4d 01 3f 14 00 76 3e
       0.38835692 -1.1443247 0.5050891 0.24023467
0001c0 78 51 3b bf 2e e5 22 be 33 d3 fa be e1 3f 2d be
       -0.73171186 -0.15907738 -0.48989257 -0.16918899
0001d0 f7 3c 54 3e 28 7e 2f bd 21 06 fc 3e 99 7e 35 3f
       0.20726381 -0.04284492 0.49223426 0.708963
0001e0 ae c8 15 3f de e7 96 3d 2d 1b 71 be d9 59 b8 3e
       0.5850934 0.07368444 -0.23545523 0.36006048
0001f0 76 cc bc be 98 38 67 3f fa 28 4a 3f 0a ad 69 3e
       -0.3687474 0.9032073 0.78968775 0.22819915
000200 f5 ca 81 be 32 03 88 be e3 5a fe be 0c 48 81 3f
       -0.25350156 -0.26564938 -0.49678716 1.0100112
000210 0a 3a 83 be ed 46 c5 bd eb 04 e7 3e ef 4c 91 be
       -0.25630218 -0.09632669 0.4512094 -0.28379008
000220 f8 03 32 3e 7e f1 e3 bc 7b bc e1 be 67 7c 03 3f
       0.17384326 -0.027825113 -0.44089112 0.513617
000230 56 6d 0e 3e 53 e8 8c 3e eb 5b 08 3e f1 29 6b 3e
       0.13908896 0.27521 0.13316314 0.22965218
000240 d5 aa ee 3d b9 96 84 3f 7b e2 2b 3f 38 65 9e bf
       0.116536774 1.0358497 0.67142457 -1.237464
000250 8b 0a 83 bf 08 1d 19 3f c4 72 17 3f ca 29 73 3f
       -1.0237592 0.59809923 0.59159493 0.9498564
000260 8a 45 ab 3e 96 3d ca 3e ce ac ae 3e 6c 0e 84 bd
       0.33451492 0.3950011 0.34116215 -0.06448063
000270 48 65 35 3e b0 44 ce be 69 a4 23 bf 81 1c de 3e
       0.17714417 -0.4028678 -0.63922745 0.43381122
000280 6e a5 54 be 2e 09 38 bf a0 a2 53 3e 18 8b e4 3e
       -0.20766231 -0.7188901 0.20667505 0.4463737
000290 79 5f ab bd a1 33 32 3f aa 18 76 3f 56 6c fd 3e
       -0.08367819 0.6961003 0.96131384 0.49496716
0002a0 79 23 39 3f e6 d6 8b be f8 4a ed be 8e 28 4b 3f
       0.7231975 -0.27312392 -0.4634626 0.79358757
0002b0 ff 7a d3 bd b9 b2 51 3e ce dc 79 3e 9d 53 5a 3f
       -0.10326194 0.20478334 0.24400637 0.85283834
0002c0 7b 0b dd be f6 bb 2b bf dd 28 8b be 78 0b da 3d
       -0.4317282 -0.6708368 -0.27179614 0.10646719
0002d0 e0 36 db bf 7a 26 8c bf c6 cd 1f 3e 26 d6 db 3e
       -1.7126122 -1.0949242 0.1560584 0.4293682
0002e0 20 19 7d 3e 6c 01 e5 3e 04 f4 55 bd b1 2d 47 3f
       0.24716616 0.44727647 -0.052234665 0.77804095
0002f0 36 ec 09 3f bd e5 2e bf 97 c1 1f 3f 10 e9 a0 3e
       0.53876054 -0.683193 0.6240477 0.31427813
000300 ed 1a 38 3f 2e 5d f6 be cc a5 7b 3d c5 e1 94 be
       0.71916085 -0.48117965 0.061437413 -0.29078498
000310 f1 85 42 3f 10 e4 39 bf 10 91 5b be bb a5 39 3f
       0.7598563 -0.7261362 -0.21442056 0.7251851
000320 26 26 0a bf 3d 33 79 3c c3 db 3f 3e 89 c1 19 3f
       -0.5396446 0.01520997 0.18736176 0.60060936
000330 98 15 a5 bf a8 e9 81 3f 2b 15 be bf b7 63 87 bf
       -1.2897215 1.0149431 -1.485021 -1.0577306
000340 4a d6 83 be ae ca 8d 3f db 9b 47 3f a0 9c dd bd
       -0.25749427 1.1077478 0.7797219 -0.108208895
000350 e9 a1 8a bf f1 22 50 be 25 54 67 be d4 40 01 3f
       -1.0830661 -0.20325829 -0.22590692 0.50489545
000360 17 dc c7 be e3 86 63 3f 61 77 50 be a9 74 23 3f
       -0.39035103 0.88877696 -0.2035804 0.63849884
000370 69 b6 1f 3e 5b 9c 03 3f cc 4e b3 3d f4 8f 37 bf
       0.15596928 0.51410455 0.08755264 -0.7170403
000380 9d 0a 4a 3f 71 a5 21 3f 89 1e 08 bf 5f dc ac 3f
       0.78922445 0.6314307 -0.5317159 1.3504752
000390 86 c0 05 3f 33 ef 75 bf 9c 04 ab 3f bb 1c c0 bd
       0.5224689 -0.96068114 1.3360782 -0.0938048
0003a0 9f ec 5d bf 43 43 15 3f fa 98 e3 be 27 7b a3 3d
       -0.8668918 0.5830576 -0.4445265 0.07982474
0003b0 06 9f 76 bf e5 f8 29 3e f0 f8 13 3e af de 64 be
       -0.963364 0.16598852 0.14450431 -0.22350572
0003c0 03 02 bb be be bc a7 bb 53 dc 2a bf 38 8a d9 3e
       -0.36524972 -0.0051189354 -0.6674244 0.42488265
0003d0 a3 51 b8 be 3e 03 08 3e bb 55 f5 3d ec e4 a0 3f
       -0.35999784 0.13282487 0.119792424 1.2569861
0003e0 d1 a3 a5 bb 27 cf 3d 3e 33 b4 7a 3e 75 1e b3 be
       -0.005054929 0.18536054 0.24482803 -0.34984174
0003f0 8d 37 b4 be a6 cf b9 be 0c 95 92 3b c6 bd fa bb
       -0.35198632 -0.36291236 0.004473334 -0.0076520173

fc.bias f4 [2]
000000 95 32 68 3e 10 0e 41 be
       0.22675546 -0.1885302
